…
gr=0.0, mosaic=1.0, mixup=0.0, copy_paste=0.0, auto_augment=randaugment, erasing=0.4, crop_fraction=1.0, cfg=None, tracker=botsort.yaml, save_dir=D:\AIO_2024\Module_1\project_yolov10\yolov10\runs\detect\train7
Downloading https://ultralytics.com/assets/Arial.ttf to 'C:\Users\nmdc46\AppData\Roaming\yolov10\Arial.ttf'...
100%|████████████████████████████████████████████████████████| 755k/755k [00:00<00:00, 7.07MB/s]
Overriding model.yaml nc=80 with nc=3

                   from  n    params  module                                       arguments
  0                  -1  1       464  ultralytics.nn.modules.conv.Conv             [3, 16, 3, 2]
  1                  -1  1      4672  ultralytics.nn.modules.conv.Conv             [16, 32, 3, 2]
  2                  -1  1      7360  ultralytics.nn.modules.block.C2f             [32, 32, 1, True]
  3                  -1  1     18560  ultralytics.nn.modules.conv.Conv             [32, 64, 3, 2]
  4                  -1  2     49664  ultralytics.nn.modules.block.C2f             [64, 64, 2, True]
  5                  -1  1      9856  ultralytics.nn.modules.block.SCDown          [64, 128, 3, 2]
  6                  -1  2    197632  ultralytics.nn.modules.block.C2f             [128, 128, 2, True]
  7                  -1  1     36096  ultralytics.nn.modules.block.SCDown          [128, 256, 3, 2]
  8                  -1  1    460288  ultralytics.nn.modules.block.C2f             [256, 256, 1, True]
  9                  -1  1    164608  ultralytics.nn.modules.block.SPPF            [256, 256, 5]
 10                  -1  1    249728  ultralytics.nn.modules.block.PSA             [256, 256]
 11                  -1  1         0  torch.nn.modules.upsampling.Upsample         [None, 2, 'nearest']
 12             [-1, 6]  1         0  ultralytics.nn.modules.conv.Concat           [1]
 13                  -1  1    148224  ultralytics.nn.modules.block.C2f             [384, 128, 1]
 14                  -1  1         0  torch.nn.modules.upsampling.Upsample         [None, 2, 'nearest']
 15             [-1, 4]  1         0  ultralytics.nn.modules.conv.Concat           [1]
 16                  -1  1     37248  ultralytics.nn.modules.block.C2f             [192, 64, 1]
 17                  -1  1     36992  ultralytics.nn.modules.conv.Conv             [64, 64, 3, 2]
 18            [-1, 13]  1         0  ultralytics.nn.modules.conv.Concat           [1]
 19                  -1  1    123648  ultralytics.nn.modules.block.C2f             [192, 128, 1]
 20                  -1  1     18048  ultralytics.nn.modules.block.SCDown          [128, 128, 3, 2]
 21            [-1, 10]  1         0  ultralytics.nn.modules.conv.Concat           [1]
 22                  -1  1    282624  ultralytics.nn.modules.block.C2fCIB          [384, 256, 1, True, True]
 23        [16, 19, 22]  1    862498  ultralytics.nn.modules.head.v10Detect        [3, [64, 128, 256]]
YOLOv10n summary: 385 layers, 2708210 parameters, 2708194 gradients, 8.4 GFLOPs

Transferred 493/595 items from pretrained weights
Freezing layer 'model.23.dfl.conv.weight'
train: Scanning D:\AIO_2024\Module_1\Data\yolov10\Safety_Helmet_Dataset\train\labels... 761 imag
train: New cache created: D:\AIO_2024\Module_1\Data\yolov10\Safety_Helmet_Dataset\train\labels.cache
val: Scanning D:\AIO_2024\Module_1\Data\yolov10\Safety_Helmet_Dataset\valid\labels... 218 images
…
